model.pt (torch, 429843 bytes, 24 tensors)

weight f4 [100, 3]
00000000: 825f 8abe d78d 2ebe c5db afbc e184 9d3e
00000010: 699b eebe c210 2abe ea78 04be 2c6b db3d
00000020: 7011 603e 1fef d3be 0e95 48bb 2cf0 f53e
00000030: 29a7 54bd a3be 39bc dcf0 99be ccf8 bcbe
00000040: d63b d83e b250 5ebe 74f3 3bbd ecea dfbe
00000050: d978 0e3f 0b3d f1be 03ee f03d 48be 0e3e
00000060: 7d27 d8bd 7b21 1f3f d9a1 eabe 4cd4 cd3d
00000070: 8e2b 803e 4619 8a3e e5fe 34bf 50a5 6e3e
00000080: 72ff 1c3e 7099 0d3e 3347 68be 7276 0f3f
00000090: de40 59be a21c 67be 2b34 8c3e 7817 da3e
000000a0: 19f7 ff3e 7cfb b23c ccfc 96bd e3c7 12ba
000000b0: d3e4 e0bc 2eb7 523e e5e7 b0bd 00ce 433d
000000c0: 13a3 98be 4a4f e33e 2fc9 bfbe 2be4 0cbf
000000d0: 823e 1c3e 4740 163f 88a4 09bf 7b71 db3e
000000e0: 67c0 3cbe 19f6 4fbe d5ee e13c 3e3d 793e
000000f0: 7a62 a5be ea4f 6c3e 043f 0b3f de15 313f
00000100: 181a 01bf efe5 bd3e 5b2f 8fbe cace f93c
00000110: f149 ee3e d4b0 5cbe 4af8 6ebe d495 52be
00000120: 30b5 093e 22ea 83bd f4a0 a63e fffb 153e
00000130: f0d7 b2be 2ab6 453e 18c1 0d3e cd69 16be
00000140: 95ad 96be cdf8 1f3f 841e babd 5ae4 d83e
00000150: d215 e9be 195d 783e 1393 92be bfdb 1dbf
00000160: 27dc 92be 0f19 a5be b554 0e3f d239 443e
00000170: 85a8 083e a7db 96bc a276 00be c4bb 803e
00000180: 149f a63e 6191 f83e 1dc8 1f3e b017 013f
00000190: 3019 1d3f 9f43 0bbf aa8a c03e 14e2 9abe
000001a0: 009e cabe 8b9f 303f 564d 29be a5a5 ef3b
000001b0: bfbe cf3e 29d0 89be 2c55 163e 3034 293e
000001c0: aa40 fb3e 8a1b f03e ec65 0c3f f27b 183f
000001d0: e5bc f5be 0f72 0fbf 2a91 d03e c02c f93e
000001e0: 692c 06be 5d20 f0bc 50b7 1bbf 92c9 57be
000001f0: bee3 133f 229a c43e 58cc e23d 3bf1 003f
00000200: 184e 97bc 5b97 4fbd f8c6 993e 4c6f d93d
00000210: d1f9 223f 42b5 a4be 215c cfbe 5e23 ce3e
00000220: 98d7 25be ad3f 9fbe c199 ba3e e2e1 853e
00000230: a3b6 663e 1e5a 2f3f 90cf 4ebd 15a8 8fbe
00000240: f4a3 d83e 2ba5 b2be 8d34 313e 0685 d4be
00000250: 154a 273f fcd0 063f 825b 0abf 45b8 323f
00000260: bfac f9be afa0 ee3e 5c32 f1be 0363 d3be
00000270: 4a32 733d 7bf1 3e3f 3001 c0be 3809 21bf
00000280: 1de1 44be 763e 11be 466e eabe 7dc4 13be
00000290: ddef 4fbe debc 243f cdf1 e7be 6273 14be
000002a0: c9da 493e b570 87be d484 19bf be70 efbc
000002b0: 90cd 7ebe 3826 7c3d 0351 20bf 0492 5cbe
000002c0: 2592 843e 497c 9ebd 402c 0d3f 513e 1abf
000002d0: 1b86 91be 587e 013f 31af 77be aedc 8abe
000002e0: 60d5 aabe a9eb 063f 512b 93be a731 2ebf
000002f0: 8eef 133e 697b df3e 42b3 ae3e 605c a13e
00000300: c724 c43d 4382 913e 24c6 d13e e485 e6be
00000310: 2659 333e ae70 843e 2dcb b3bd 1624 4d3e
00000320: 5301 373e 1026 e6be e613 37bf e74a a8be
00000330: 862f e6be a7da 1c3e 5b1f b2bd 2ace 3dbe
00000340: 67b3 1a3f e40c 133f 7dc7 1abe 594e 49be
00000350: 8c67 1c3f 368a 2b3e c7eb ad3e 31a8 acbe
00000360: 2de4 203f b395 e43e 765f 5b3e c7e8 c83e
00000370: 0351 513d 9b81 a4be fbd5 093f 7d48 a03e
00000380: 7258 d8be dd7b 3f3f 7664 c43d c0c5 53bc
00000390: d4fb 923e 83f3 4ebe 2d24 a63d 9064 373e
000003a0: d012 8b3e de29 cb3d 43fa aabe 8fd6 10bf
000003b0: 52d0 8bbe e3a4 1c3d e2c7 9b3e cb9d 0d3f
000003c0: ab5d 07bf cf5b 813c 3de0 843e 6297 bebe
000003d0: 791e 213f d3bf 0fbe a36b 163d 071a cbbe
000003e0: e636 ec3e c128 f63d 2f86 1abf e671 873d
000003f0: 324e 693e 8473 2a3f f9d2 b7be 192d 00bf
-0.27025992 -0.17046295 -0.021467099 0.3076544 -0.46602944 -0.16607955 -0.1293675 0.10713801
0.21881652 -0.41393372 -0.0030606422 0.480348 -0.05191723 -0.011336955 -0.30066574 -0.36908567
0.4223315 -0.2171047 -0.045886472 -0.4373392 0.5565315 -0.47116885 0.11764147 0.13939774
-0.10554407 0.6216046 -0.45826605 0.10050258 0.2503323 0.26972407 -0.7070144 0.23305249
0.1533182 0.13828063 -0.2268341 0.5604011 -0.21216151 -0.22569516 0.2738355 0.4259603
0.49993208 0.021848433 -0.07372436 -0.00055992434 -0.027452862 0.2057769 -0.0863798 0.04780388
-0.29811916 0.4439643 -0.37458178 -0.55035657 0.1525822 0.5869183 -0.5376668 0.42860016
-0.1843277 -0.20308723 0.027579704 0.24339768 -0.32301694 0.2307736 0.5439303 0.6917399
-0.5043044 0.37089488 -0.27965817 0.030494113 0.46540788 -0.2155183 -0.23336902 -0.20564967
0.13448024 -0.06441142 0.32544672 0.1464691 -0.34930372 0.19307771 0.1384319 -0.14688797
-0.29429308 0.62489015 -0.09087852 0.42361718 -0.4552446 0.24254264 -0.28627834 -0.6166343
-0.28683588 -0.3224568 0.55598 0.19162682 0.13345535 -0.018415285 -0.12545255 0.25143254
0.32543242 0.48548415 0.15603681 0.5042677 0.6136656 -0.54400057 0.37605792 -0.3025061
-0.3957367 0.68993443 -0.16533408 0.0073134475 0.40575215 -0.26916626 0.14680928 0.16523814
0.49072772 0.4689601 0.5484302 0.59564126 -0.47995678 -0.56033415 0.4073575 0.48666954
-0.13102879 -0.029312307 -0.6082659 -0.21072987 0.5776938 0.38398844 0.11074132 0.5036809
-0.018469855 -0.050681453 0.30034614 0.10616931 0.6366244 -0.3216954 -0.40499976 0.40261358
-0.16195524 -0.31103268 0.3644543 0.26148897 0.22530608 0.6849688 -0.050490916 -0.28057924
0.42312586 -0.34891638 0.17305203 -0.4150774 0.65347415 0.52662635 -0.5404588 0.69812423
-0.48764607 0.46606967 -0.47108734 -0.41286477 0.05937413 0.7458722 -0.37500906 -0.6290469
-0.19226499 -0.14183983 -0.45787257 -0.14430423 -0.20306344 0.6435069 -0.45301667 -0.1449714
0.19712366 -0.26453176 -0.59968305 -0.029228564 -0.24883103 0.061559886 -0.62623614 -0.21540076
0.2589275 -0.07738549 0.55145645 -0.6025134 -0.28422627 0.5058341 -0.24187924 -0.2712149
-0.33365917 0.5270334 -0.28743985 -0.68044513 0.14446852 0.43648842 0.34121138 0.3151579
0.09577327 0.28419694 0.40971482 -0.45024025 0.17514476 0.25867218 -0.08778987 0.20033297
0.17871599 -0.44950914 -0.7151474 -0.32869646 -0.44958133 0.15317784 -0.08697387 -0.18535677
0.60429996 0.57441545 -0.15115161 -0.19658794 0.610955 0.16751942 0.33968946 -0.3372207
0.6284817 0.4464546 0.21423134 0.39240095 0.05110265 -0.3213013 0.53842133 0.31305304
-0.42254978 0.74798375 0.09589474 -0.012925565 0.28707755 -0.2021008 0.08112369 0.17909455
0.2716279 0.09920095 -0.3339406 -0.5657739 -0.27307373 0.038243186 0.30425936 0.553189
-0.528773 0.015790848 0.2595233 -0.3722487 0.6293712 -0.14038019 0.036723744 -0.39668295
0.46135634 0.12019492 -0.60361 0.06613521 0.22783735 0.6658251 -0.35903147 -0.50068814

bias f4 [100]
00000000: ee3f 1ebc 5f5c c73e 286e f3bd f80d dc3e
00000010: 74bd bc3d 78da 133f 40a1 a93e b87b 963d
00000020: d12b fe3d b2b7 57be d3ce b1be c01a 3d3e
00000030: aa3b 9fbd 9723 fdbe 3b42 d0bd 86ff cfbe
00000040: 0fa8 b6be a4c2 653d 1f88 ab3e ec8f d73e
00000050: f207 9fbd a7b5 7a3e 1d4b b83e c711 44be
00000060: 951d ad3e 82e6 8a3e 7d81 063f fd91 c8be
00000070: 85cb df3d 0b06 ab3e 6e1a 1a3e 86a6 5cbe
00000080: 614c 97ba 8b46 d33e a9b3 003f 44b1 0abe
00000090: 6797 043f e904 50be 8b38 7e3e 8eb6 133f
000000a0: e96c cbbd 6222 bebe 6683 023e 0793 f3be
000000b0: 0ccd 8e3d f2df b13e b1cd f5bd ca14 cebe
000000c0: 4d49 69be 7a72 7c3e 925d e23e 3cd6 e8be
000000d0: cd1f d1be ec1b 283f 3f82 843e 6acd bf3d
000000e0: 0803 853e 0f6e fabe 3397 8cbe 4eba 0b3f
000000f0: fc52 e83e 5d2f b73e 97cf 9ebc b6c3 66be
00000100: 3814 cf3e 91b9 ca3e b842 b5be 8388 40be
00000110: 5905 68be 0f32 36bd 5416 8abe 6a45 98be
00000120: 3a55 64be 686c 0abe c735 75bb 6c46 79be
00000130: 3681 6bbe 8ea9 e4be ac14 b53e 50ff 5a3e
00000140: 1825 503d c78b f4bd 82fa f73e 6b7e 863e
00000150: 61e4 e8be ddb5 583d c740 fd3e eb93 3d3e
00000160: 9f8f 89be d0d2 c7be 1315 eabe e708 1b3e
00000170: 333b 803e abb5 f13e 3907 d03d bd4d 8d3e
00000180: 7874 fd3e c4e4 183e a915 c53d d01f c6be
-0.009658797 0.3893766 -0.11886245 0.42979407 0.09215823 0.5775523 0.33130836 0.07347816
0.12410701 -0.21066168 -0.34728107 0.18467236 -0.07775052 -0.49441215 -0.101688825 -0.40624636
-0.35675094 0.056093827 0.3350229 0.4210199 -0.07765187 0.24483357 0.35994807 -0.19147407
0.33811632 0.27128989 0.52541333 -0.3917388 0.1092749 0.33403048 0.15049145 -0.21547899
-0.0011543148 0.41264758 0.5027414 -0.13544184 0.5179352 -0.20314373 0.24826257 0.5770043
-0.09932882 -0.37135607 0.12745437 -0.4757311 0.06972703 0.3474117 -0.12002123 -0.40250236
-0.22781868 0.24653044 0.44212013 -0.45475948 -0.40844575 0.65667605 0.2588062 0.093653515
0.25978875 -0.48912093 -0.27459106 0.54581153 0.45375812 0.35778323 -0.019386096 -0.22535595
0.40445113 0.395947 -0.35402465 -0.18802075 -0.2265829 -0.044481333 -0.2697016 -0.2974046
-0.22298136 -0.13517916 -0.0037416087 -0.2434327 -0.22998509 -0.4466061 0.35367334 0.21386456
0.050816625 -0.11940723 0.4843331 0.26268324 -0.4548674 0.052907813 0.49463484 0.18513457
-0.26867387 -0.39028025 -0.45719203 0.15140115 0.25045165 0.47208914 0.101576276 0.27598372
0.4950292 0.14931017 0.09623272 -0.38696146

weight f4 [100, 100]
00000000: 3f71 663d 2082 e6bd df0c a6bd 1a42 9cbd
00000010: 0c42 d8bb 1a4d 063e f545 20be 2871 e93d
00000020: 36ea 83bc 4a58 1e3d be05 11be 5195 b53d
00000030: a43e e53d 3161 ab3b e25b 7b3c 5a96 0bbd
00000040: 2cb0 9f3d c8fd 413d 0f5a 783d 1b91 623d
00000050: a2ef 72be 74a7 ce3d 46f4 0b39 b211 c63b
00000060: a52e e23d ab77 56be 88ec 73bd 3120 01be
00000070: fcf8 913d 2f37 1a3d 6760 52be 1d10 3dbc
00000080: 255f d3bd f66c 84bd 5683 3b3d 7ef1 bfbd
00000090: 832c 8e3d 4f85 6dbd ab80 1f3e 0f66 2abd
000000a0: b66d 89bc eee9 0c3d be32 c7bc 3799 12be
000000b0: f070 c43d 1185 49bd 753b 5bbd 8395 9cbd
000000c0: 653b efbd d016 503b 3dca c9bc ff6f 34bc
000000d0: bade 15bd 908d 39bd 3147 223e 01a6 5a3e
000000e0: cc3c f4ba 1e3d 3d3e 145c 6dbd dd54 403e
000000f0: 64c9 623e 6ea9 f53d f08d b43c f49d ebbd
00000100: ec7b 5f3d 3e4f 723d 2c2c babd 170c 8c3c
00000110: 1d48 ec3d 727a dbbd 2196 8fbc c716 86bc
00000120: 0b0a 9cbd e2d8 10be 0c70 6fbe d6d3 9dbd
00000130: a9de afbd 6caa 4dbb b653 2f3e 6193 9bbd
00000140: 9d2f 14bd 0f2e d53d a64a 2cbd db53 03bd
00000150: 42b3 40be 4132 9b3c 5b66 c13c a66a ab3e
00000160: d4ea d9bd f7d8 26be 72b9 8ebd cc36 423d
00000170: b7f0 25bd 4f8c ebbd 5ee2 5c3d d1a3 a3bd
00000180: 62be fdbd 64c3 edbd 5ffe 55be c6fa 0abe
00000190: e4cf 473c 4e87 be3d 61f4 7dbd ba93 6fbd
000001a0: 00d5 4c3e faed f93d 5408 dd3d b031 033e
000001b0: b5e4 9dbc a15b b9bd 1637 963d 0540 2ebe
000001c0: a464 79be 334c 8bbc 8b9d 133e 421c 8ebd
000001d0: c507 b63d 0b54 f33d 5da4 1dbe bcfe 633d
000001e0: 4816 783d bf79 9dbd ad44 1cbe 0b5e 623d
000001f0: 6a2e 183e bf3a 00be bf95 0f3d bc8c 89bd
00000200: 9361 ddbd 6a5d 6b3e 3de0 9e3c 3085 1cbe
00000210: 38ac 27bd 6789 8b3d 3e0f a1bd 45a6 293e
00000220: 0d1a 63bc 11d4 6cbd c09f 673e f4a0 18be
00000230: 89f6 693e bb9c d93d 7f3e 67bd 14b9 0ebd
00000240: f0a2 febc ea07 85bd 8869 133d 35e7 7ebd
00000250: 579f e1bc bd6a 42bc 5920 f13c 5d4e 993b
00000260: 81e9 963d b76b e33c e6b9 cdbd e883 2e3e
00000270: 6198 273e 265f 773d d675 85bd 6e39 d03d
00000280: f3e6 ebbc 9a39 e1bd 3d50 993c 0386 cbbb
00000290: 9120 8abd 0dcb f9bd b901 27bd e22b 16be
000002a0: 3df5 b7bd fa96 a9be b44d 09be c9f1 b33d
000002b0: 884d 533d b0d2 86bd 4cc8 ac3d 552b 643e
000002c0: da1f d33d ca3d b6bb 6589 5b3a 4572 47bc
000002d0: 03ca 863d bc83 0d3d 6653 403e 301b 06be
000002e0: a2d1 ec3c 021c d4bd 2196 963e 627b 44be
000002f0: 703a 8dbd 4ca7 2cbd 1fb7 a1bd 14ad 1a3d
00000300: 101e 93bc 2f44 04be f9f1 44be 8beb 583d
00000310: aae0 82bd a323 ae3c 1b8c 5cbd 0656 b0bd
00000320: be72 4ebd cebb 4bbe 5a3c 0cbd 99db 8a3e
00000330: 1c05 30be 49b4 d43d 97fc 87bd 876a 1f3e
00000340: cfa6 f9bd 02b6 923d 921d 573d dbbf e93a
00000350: d751 0dbe 7780 10be fd69 65bd 274a 8bbd
00000360: 4093 d93d a6c8 9c3c c6fa 5e3e 57bd 0cbe
00000370: 5e9e c63d f8e0 24be 2d30 143e 9cd3 f4bc
00000380: f91a 4a3b aa60 fabd c1b1 8b3d 1576 01bd
00000390: cc0c 243e 88e4 483e 3085 45bd 1955 62be
000003a0: dfc1 2d3e 25d0 853a 8434 fcbd 2b2f 8abe
000003b0: d0bc a3bd 2a09 593e ebac 12be 48b2 2a3e
000003c0: 827e b0bc 4d95 203e 9a24 8d3d 4cad 0f3e
000003d0: 7d33 52be c427 22be 50b6 27bd 5f5a b4be
000003e0: 3cfc 32bc cb78 353e d3de 983d c1d2 03be
000003f0: 85a8 c7bd 7c84 cf3d ef4d fc3d 408a d5bd
0.056260344 -0.11255288 -0.08107924 -0.07629795 -0.0065996703 0.1311535 -0.15651686 0.11398536
-0.016102891 0.038658418 -0.14162347 0.088663705 0.111935884 0.005230092 0.015341731 -0.034078933
0.07797274 0.047361165 0.06063276 0.055314165 -0.23724225 0.10090533 0.00013347072 0.00604459
0.11044053 -0.20944087 -0.059551746 -0.12609936 0.07127568 0.037650283 -0.20544587 -0.011539486
-0.10320882 -0.06466095 0.04577955 -0.09372233 0.06942084 -0.05798846 0.15576427 -0.041601237
-0.016775947 0.03440278 -0.024316188 -0.1431626 0.095918536 -0.049199168 -0.0535235 -0.076457046
-0.116812505 0.0031751879 -0.024632568 -0.01101303 -0.03658936 -0.04530102 0.1584747 0.21352388
-0.0018633842 0.18480346 -0.05794914 0.18782373 0.22147137 0.11995207 0.022040337 -0.115047365
0.05456154 0.059157602 -0.09090456 0.017095609 0.11537192 -0.10716714 -0.017527642 -0.016368283
-0.07619103 -0.14145234 -0.23382586 -0.0770642 -0.08587391 -0.0031382097 0.17121777 -0.0759647
-0.03617822 0.104091756 -0.042063378 -0.032062393 -0.18818381 0.018944861 0.023608377 0.33479804
-0.10640493 -0.16293703 -0.06968965 0.04741554 -0.040512767 -0.11501371 0.053926818 -0.0799023
-0.12389828 -0.116095334 -0.20897816 -0.13572225 0.012195561 0.09303151 -0.062000636 -0.058490492
0.20003128 0.122035936 0.10792604 0.12811923 -0.019274095 -0.0905068 0.073347256 -0.17016609
-0.24354798 -0.017004108 0.14415567 -0.069389835 0.08888201 0.11881264 -0.15394731 0.055662856
0.060568124 -0.07689237 -0.15260573 0.055265468 0.14861456 -0.1252241 0.03505492 -0.06716296
-0.108096264 0.22984853 0.019394035 -0.15285182 -0.040935725 0.06813317 -0.07864235 0.16567333
-0.013861191 -0.05781943 0.22619534 -0.14905149 0.22847952 0.10625597 -0.056456085 -0.034844473
-0.031083554 -0.0649565 0.035989314 -0.062232215 -0.0275418 -0.011866269 0.02943437 0.004678531
0.07368756 0.027761323 -0.10045223 0.17042506 0.16366722 0.060393475 -0.06516616 0.10167204
-0.028796649 -0.10997315 0.018715018 -0.006211044 -0.06744493 -0.12196932 -0.040773127 -0.14665177
-0.08982322 -0.33122998 -0.13408548 0.08786351 0.05158761 -0.06583154 0.08436641 0.22282155
0.103088096 -0.005561565 0.00083746604 -0.01217324 0.065814994 0.03454946 0.18781814 -0.13096309
0.028908554 -0.103569046 0.29411414 -0.19187692 -0.06895912 -0.042151734 -0.07896256 0.037762716
-0.01795867 -0.12916635 -0.1923293 0.052959006 -0.063905075 0.021257227 -0.053844552 -0.08610158
-0.050402395 -0.1989586 -0.034237243 0.27120665 -0.17189449 0.10385949 -0.066399746 0.1556798
-0.12190019 0.071636215 0.052518435 0.0017833667 -0.1380075 -0.14111505 -0.05600928 -0.06801253
0.10623789 0.019138645 0.2177535 -0.13744102 0.09698175 -0.16101444 0.14471503 -0.02988606
0.003083883 -0.122254685 0.06821013 -0.031606752 0.16020507 0.19618428 -0.04822272 -0.22102775
0.16968487 0.0010209127 -0.12314704 -0.2698911 -0.079949975 0.21194902 -0.14323775 0.16669571
-0.021544699 0.15681954 0.06891747 0.14030951 -0.20527454 -0.15835482 -0.04094535 -0.35225198
-0.010924395 0.1772186 0.07464375 -0.12873365 -0.097489394 0.10132691 0.12319552 -0.1042676

bias f4 [100]
00000000: efb5 c93c dfe6 3dbd bbe2 233d 15b8 063d
00000010: db7a e73d 545a 11bd b9ac 2abd 74d3 2dbc
00000020: bc80 8a3c 7ba0 e03c 54d5 bfbd d514 393d
00000030: e1ca cabd 27c1 72bd 9e3c 57bb 7384 fc3d
00000040: 7e4b 4cbc ab8f 88bd 962a aaba 18e8 063d
00000050: ad42 84bd af4a fabc d4e7 953c d16f 263d
00000060: 0cb9 5fba a64b 663d 9690 f83d ee3b e63d
00000070: 89ff 403d 77a7 303c b069 82bc 942f 7abd
00000080: d132 aa3c 04d9 683d 4bdf ddbc 6da7 fb3b
00000090: 6ca8 e5bc 49cc 62bc 2c6c 533d 04c4 323d
000000a0: e7a7 123e 437d a83d d3b6 76bd 9bdf 563d
000000b0: b911 0e3e 34ad 163d c07a 2cbd 0914 103d
000000c0: a2a8 923c 2bcf 8c3d b2e0 f5bc dd76 8bbd
000000d0: 9af2 a03d 4046 a83d 66e3 a0bd 62b0 f53d
000000e0: 5e18 cc3d eff5 703d 6e7a a63d 2c10 4cbc
000000f0: 3e16 f7bd d737 67bd 2a73 c73d 14ca 2dbc
00000100: 434a b3bd 84ef 5e3c 7528 3d3d a801 aabc
00000110: c3ad ea3d 7e3c 35bd e837 e63c 119b 0e3d
00000120: e7b5 903d 3010 48bd a6ee 17bd 1dee 093c
00000130: a4be e03c b85a a73d bdfe 253d aeb8 9dbb
00000140: 7009 bd3d ae99 16bd f0cf 3abd ad88 ae3d
00000150: b6d1 d23d 3865 733d fb80 5cbd 3e4b 43bd
00000160: f548 9f3c 3cec 973d f27a 93bd 0059 9f3d
00000170: a7c9 af3d cccf 9abd f989 353d 9e78 5c3c
00000180: 560a cf3c 6a8d 67bd 7d42 113d 012f 4c3c
0.024622886 -0.046362754 0.04001115 0.032890398 0.1130273 -0.035486534 -0.041668627 -0.010609496
0.016907088 0.027420273 -0.09366861 0.045185883 -0.09901977 -0.059266236 -0.0032842527 0.1232995
-0.012469171 -0.066680275 -0.0012982662 0.032936186 -0.0645803 -0.03055319 0.01829902 0.04063398
-0.0008534349 0.056224488 0.121369526 0.112418994 0.047118697 0.010782114 -0.015919536 -0.06108053
0.020776184 0.056847587 -0.027084013 0.007679871 -0.028034411 -0.013842651 0.051616833 0.043643966
0.14321862 0.08227017 -0.06023295 0.05245934 0.13873948 0.036786273 -0.04210925 0.035175357
0.017902676 0.06875452 -0.03001437 -0.06809781 0.078587726 0.08216524 -0.07855873 0.11996533
0.09965585 0.05882829 0.0812882 -0.012455028 -0.12064789 -0.056449737 0.09738763 -0.010607261
-0.08754399 0.01360691 0.04618116 -0.020752743 0.11458924 -0.044247143 0.02810283 0.03481585
0.07065945 -0.048843563 -0.037092827 0.008418587 0.027434655 0.081716 0.04052614 -0.0048132753
0.09230316 -0.036767654 -0.04560846 0.085221626 0.102939054 0.0594227 -0.053833943 -0.04767918
0.019443968 0.07418105 -0.07201184 0.07780647 0.08583384 -0.07559165 0.044321034 0.013456492
0.025273483 -0.056531347 0.0354638 0.0124623785

weight f4 [100, 100]
00000000: 1ff6 863c cdcc 8dbd 3e97 653b a46e aa3d
00000010: 8254 dfbd 015d 52be 9da9 32bd b719 3c3e
00000020: 4d80 30be 237d a6bb 95a9 963d edcd e5bd
00000030: 55f4 0a3d b176 413e 8170 0a3d 2f65 4cbe
00000040: 6236 aaba 0c31 5d3c dded f1bd 2f49 5e3e
00000050: 024e 94bc 70a3 ec3c 42d8 6f3d 0541 163d
00000060: dbfb 4dbc baaa 953d 9ff5 a3bd 71a9 81bd
00000070: 6e9a 093e e60c 413d 2ed9 53bb e357 263e
00000080: 55ed c4bc 5dc7 6ebd 16d8 b43d ae2f d8bd
00000090: eede d53d 42d3 b23c cc8d 09bc 6f5d 333c
000000a0: af09 613e 3f1e cb3d e4a0 20be 76c2 1f3d
000000b0: 70a6 2ebe d3a7 2bbe 752e 393e be4d a5bd
000000c0: 6b6b 80bd 67bc cabc 4a67 da3d 9df0 60bc
000000d0: 957c 0b3d 7a5e 143d 99db 80bd b787 0dbe
000000e0: 4c21 353c 8132 a63d 68a6 ddbb a749 83bd
000000f0: bede 313c 1abb 12bc 86f2 c83c 8b37 9ebd
00000100: 8222 23be 1cbd 17bc 2c5d 51bb d63f 3e3d
00000110: 5b68 353d 7bff 46be 4304 0b3d 2166 633d
00000120: 18da 893d ca00 69bd 0bb4 723e e157 37bd
00000130: 7db1 b53d 6036 e1bc 025d a33d 05fb 613b
00000140: f022 7d3c e82c 94bd e18d 1dbe 5b55 ecbd
00000150: 9986 213d 4eab ffbc 1d27 2fbc f7aa cf3d
00000160: 1f67 d63c 5abe 7f3d 4c76 2f3d 3aec d4bd
00000170: 0539 0c3d 1137 0b3e 4489 55be 73fc 063d
00000180: fc8b aebd df91 5dbd e1e1 bf3d f22a 07bd
00000190: febd a8bd 8e74 3fbd e696 f53d 0cbc 38bc
000001a0: ce11 353d 6174 2e3e 2d4c cebd b3ea 91bd
000001b0: f50d 033e 859f 8ebd 115a 8c3d 10a6 d03d
000001c0: 5830 2e3d e0d7 8fbd 810f 17be 6abc 72bd
000001d0: e266 b23d 0525 96bd 0928 0d3e 4785 c8bd
000001e0: bbc6 013e a3c0 08be 1adc 303d 0827 adbd
000001f0: 2872 593d b0ab 663d 63a2 b2bd ba55 153e
00000200: a23a 103d 6c52 1fbe bf0d 5fbc 744b 00be
00000210: 868e 023b 1918 cc3d 1034 59be 3ea3 1b3d
00000220: ab13 753d 7f91 9fbd 8adc aebb 2ec5 ba3d
00000230: a23a 9abd 24a5 6f3d dc2f ca3d 85c8 7a3d
00000240: d509 283e 4bc2 d7bd 2a3c 44bd d9bd d6bc
00000250: 9bdb d33c f873 cabb 700e 1c3e 237c b6bd
00000260: 0931 1e3e 1ecc 98bc 7bac 43bd 831d f63d
00000270: 49a4 03bd 0ea7 453e e504 babd 77cb 3abd
00000280: 8630 db3b ae9f d23c 3b75 15bd fe73 c73d
00000290: 1404 02be 4ca5 513d f96b c7bd 65b9 bf3b
000002a0: 848b e63d 84ac 1abe f547 53bd 686b 2d3e
000002b0: d0fb 443b f956 03bd 3a70 e33c 2afe 633e
000002c0: c6cc 313d 870a 973c a612 2a3e 7ce3 e03d
000002d0: 3418 073e 1662 d63c fd41 843c a268 153a
000002e0: 5901 923d 2fc9 c6bd bb23 3dbe 7368 413d
000002f0: 086b 923d 1f05 193d 1cf1 b4bd bb25 063e
00000300: f940 0dbd b247 3a3c 4a88 11be b493 6e3d
00000310: 65bd 263d 293c 3ebe 230d 77bd 54da a93d
00000320: cc34 823d 25a2 d6bd cf55 20bc f917 1b3d
00000330: 3462 2fbd f9e1 183d 143b 44be 9698 323c
00000340: cc8b 40bc 3f9c 113e 6e76 59be 1709 3f3d
00000350: 0f79 bfbb dee4 5b3e 9914 17be 0cdb b5bd
00000360: 3233 e03c 9672 a1bc 8cd5 583e 0a7b fa3d
00000370: a672 a8bd 55d5 fdbd bc08 f9bd 885a cc3d
00000380: c2d0 8e3d 1daa 0ebe a80d c03d c4ca 57bd
00000390: 2f7e 6b3c 19c7 473c 3ba6 78bc 3d89 d13d
000003a0: ce50 153c 051d c9bc d109 d8bc e2f0 9cbd
000003b0: 0aef cdbd 194b 66ba 1c36 153d 7181 cfbd
000003c0: 9f14 28be 3b7a 2d3d 1008 cdbd d682 863b
000003d0: 2d6d 993e bd87 543e 7c47 aebd a928 193e
000003e0: e8e5 bd3c 0738 c5bc 0c46 1b3a 72bd a83d
000003f0: 17b8 a2be 035c e5bd bdfc b83c 8a23 0fbd
0.016474782 -0.06923828 0.0035032774 0.08321884 -0.109047905 -0.2054329 -0.043618787 0.18369184
-0.17236443 -0.0050808354 0.07356564 -0.11220918 0.03392442 0.18892933 0.0337987 -0.19960473
-0.0012986178 0.013500463 -0.11812947 0.21707605 -0.018103603 0.028886527 0.05855585 0.0366831
-0.012572254 0.07307954 -0.08005833 -0.063311465 0.13437817 0.04713144 -0.0032325494 0.16244464
-0.02403895 -0.058295596 0.088302776 -0.10555969 0.10442911 0.021829251 -0.008395623 0.010947569
0.2197635 0.09917878 -0.15686375 0.03900381 -0.17055678 -0.16763239 0.18084128 -0.08071469
-0.06270488 -0.02474804 0.10664232 -0.013729242 0.034054358 0.036222912 -0.06291885 -0.13821302
0.011055302 0.081151016 -0.006764222 -0.064105324 0.0108563285 -0.008955741 0.024529707 -0.07725438
-0.15931132 -0.009261396 -0.0031946404 0.046447597 0.044288974 -0.19433396 0.03393961 0.05551732
0.06731051 -0.056885518 0.23701493 -0.044761542 0.08871744 -0.027491748 0.07976724 0.0034481895
0.015450224 -0.07235128 -0.15386154 -0.11539718 0.039435003 -0.031209614 -0.010690478 0.10140031
0.026172219 0.062437393 0.042837426 -0.10396619 0.034234066 0.13595225 -0.20853144 0.032955598
-0.08522794 -0.05409419 0.09369255 -0.03299994 -0.08239363 -0.046742015 0.11991672 -0.011275303
0.044206433 0.17036583 -0.10073123 -0.071248434 0.12798293 -0.0696402 0.06853116 0.10187924
0.042526573 -0.07023597 -0.14752008 -0.059261717 0.087110296 -0.0733128 0.13784803 -0.09791046
0.12673466 -0.13354735 0.043178655 -0.0845471 0.053087384 0.056316078 -0.08722379 0.14583483
0.035212167 -0.15558785 -0.013614117 -0.12528783 0.0019921376 0.09965534 -0.21211267 0.037997477
0.05983321 -0.07791423 -0.005336349 0.0911964 -0.075307146 0.0585071 0.0987241 0.061226387
0.1641 -0.10535105 -0.04790894 -0.026213573 0.025861552 -0.0061783753 0.15239882 -0.08910396
0.15448393 -0.018652018 -0.047771912 0.12017348 -0.032139096 0.19302008 -0.09082965 -0.045604195
0.006689134 0.025710907 -0.036488753 0.09738921 -0.12696868 0.05118303 -0.09737391 0.005850958
0.11257079 -0.15104872 -0.051582295 0.16935503 0.0030057319 -0.032065365 0.027763475 0.22264925
0.043408178 0.018437637 0.16608676 0.10980889 0.13192827 0.026169818 0.016144747 0.00056994904
0.07129163 -0.097063415 -0.18470661 0.04721875 0.07149321 0.0373584 -0.088350505 0.1310033
-0.03448579 0.011369633 -0.14212146 0.05824633 0.040707964 -0.18577637 -0.060315263 0.08293596
0.063577265 -0.10480145 -0.009786083 0.03786466 -0.042818263 0.03732488 -0.19163162 0.010900637
-0.01175208 0.1421976 -0.21236584 0.046639528 -0.0058432887 0.21474025 -0.14753951 -0.088796705
0.027368162 -0.01970796 0.21175212 0.12230499 -0.082249925 -0.123942055 -0.12159869 0.09978205
0.06973411 -0.1393208 0.09377605 -0.052683607 0.014373346 0.012193465 -0.015176351 0.10231254
0.009113504 -0.02454997 -0.026371868 -0.07663132 -0.10055359 -0.0008784994 0.036428556 -0.10132111
-0.16414116 0.042352896 -0.100113034 0.0041049523 0.29966107 0.20754905 -0.08509728 0.14956917
0.023180917 -0.024074567 0.00059232186 0.08239259 -0.31781074 -0.111991905 0.022581453 -0.034946002

bias f4 [100]
00000000: 5a6c 57bd f408 213d 337c d23c a5b2 a43c
00000010: 0ecc 96bc 095f fe38 eea0 74bc cdf7 183c
00000020: aa3a 873d d18e 8e3d f67d 36bd 33b4 153d
00000030: b7c3 34bd 66f4 303d 961c afbd 4284 4a3d
00000040: 69e5 193b 02d1 083c 1325 d5bd 21fb c7bd
00000050: e134 643d 7901 ae3d 1e39 0a3d 6f60 1dbd
00000060: 9818 01be 7da5 5ebc ee49 c2bc 1e92 a1bc
00000070: ef3b 0bbd 7845 a2bd e974 46bd ea9a 19bb
00000080: 7949 a73d 45cf 823d 55ec 3d3c aa93 d83d
00000090: 5f16 0abe 184b cc3d be34 15bd 1353 f5bc
000000a0: be16 84bd a662 313d 0956 9d3c d891 e83b
000000b0: c0e5 1abd a6fc e5bc ba65 073d fe4f c7bd
000000c0: 21e2 0abc 4b60 573d 7504 50bd 038c 0c3d
000000d0: d462 043d 1165 cabc 017a 803d 5843 0abd
000000e0: 2069 8d3d e7ca a53d 86d5 5f3d de9b 3dbd
000000f0: a750 4f3d f8a5 043c 06db cbbd 25d8 bbbd
00000100: 7731 b03b 070c d33d e684 313d fc80 e53c
00000110: 659e 22bd 2246 653d 41c4 b43d 88f7 f9bd
00000120: 5109 063d 2cb1 563d 9aec a6bc 6294 44bd
00000130: 37ce 85bb d5a0 373d 4fd2 42bc 4f78 e43d
00000140: 30ad 493c c61a 44bd 76ea 893d 4dbb 063d
00000150: 4ba9 8a3d cb27 c23d f2ad 0a3d d984 323e
00000160: 1e1c a23d 76e0 863c d173 7dbd a4d3 e43d
00000170: 830e bf3c 18e3 07bc e941 cbbd 9b2d c1bc
00000180: b737 3b3d 83d0 c73c eecf ff3b 7b9d 33bd
-0.052593566 0.03931518 0.025693988 0.020104716 -0.018407848 0.000121293655 -0.014930947 0.009336424
0.06602986 0.06960834 -0.04455372 0.036548804 -0.04413196 0.043201827 -0.08550374 0.049442537
0.0023482686 0.008350613 -0.10407462 -0.09764696 0.05571449 0.08496375 0.033745877 -0.038422044
-0.12607038 -0.01358926 -0.023716893 -0.019722994 -0.033992704 -0.07923406 -0.048451338 -0.0023438283
0.08168311 0.0638719 0.0115919905 0.1057504 -0.13485096 0.099752605 -0.036427252 -0.02994684
-0.0644965 0.04330697 0.019206064 0.007097464 -0.037816763 -0.028074574 0.033056 -0.09732054
-0.008476765 0.052582067 -0.0507855 0.034313213 0.032320812 -0.024706395 0.062732704 -0.03375563
0.06904817 0.08095341 0.05464699 -0.046291225 0.050614025 0.008096211 -0.09953885 -0.09172086
0.0053769904 0.103050284 0.043339632 0.028015606 -0.039701838 0.055975087 0.08826495 -0.12205416
0.03272373 0.052415058 -0.020376492 -0.04799307 -0.0040834206 0.044831116 -0.011890962 0.111557595
0.0123093575 -0.047877096 0.06734173 0.032893468 0.06770571 0.09480246 0.033857293 0.1743349
0.07915519 0.016464453 -0.06187803 0.1117318 0.02332235 -0.008293889 -0.09924681 -0.023581317
0.04570743 0.024391418 0.0078067696 -0.043851357

weight f4 [100, 100]
00000000: 3f57 693c c6c2 64be 2539 673e e886 83bd
00000010: 335d 4abd 212f 64bd 95bb 0fbe 75de 05be
00000020: f109 443d d684 113d 87a3 6d3c e540 2e3d
00000030: 4a0d a03d fd67 0b3e 4b15 063e 9564 0cbe
00000040: 12fd 25bd 2c24 da3d bd77 483d 634f 313e
00000050: 860a 7f3c cafc 3bbe 3b62 deba a4af 603e
00000060: ad48 70bd 17bf 4bbd 6384 003d ec85 283d
00000070: 0a58 6dbd 2488 c13c 0f29 4cbc fc11 283e
00000080: 97e2 acbc f2eb 243e cd28 f5bd 85b1 fd3d
00000090: 4013 ffbd 3099 233c 49ab a33d 738e ebbd
000000a0: 3306 b6bd 1c5c 28bc 165e f93d cba6 1abd
000000b0: 8474 17be 2f1f 85be c6f5 5b3d 489a 96bd
000000c0: 92f8 c23d 9ff9 22be 19f5 79bd b9f9 973d
000000d0: 54df c1bd f77e 123e eb29 3fbd 8416 053e
000000e0: 26f7 1dbd c75c 2cbe 6c2b a8bd ffc4 293d
000000f0: d850 bdbd 67e7 c03b 61a7 53be c362 be3d
00000100: 978a 03bc 84ad e73d 608b b0bd 1afc 273c
00000110: 7418 11bd 5233 3fbd 571f dabd c8ae cebd
00000120: bd68 dc3d 47ef 17be 9f3f 0a3e 5ddd 57be
00000130: 75dd 0f3d 3f0a 50be 1480 c8bd 5de6 0dbe
00000140: 53f2 b8bc 4d53 7cbc 50eb 2ebd 779e 8ebd
00000150: 4943 e7bc 233c 2d3e 94db cd3d d778 ddbd
00000160: f91d a43d ad77 c2bd 52de fc3d 3f51 21bd
00000170: 9f47 263d 8720 9bbd f210 db3c 71c3 373e
00000180: aed8 073e b224 1a3e c3a3 a3bc dd3c a13d
00000190: 1c8b a4bd 6233 4fbe b90a f53d 70c8 b0bc
000001a0: 373d 8bbd 8ca9 97be 5c7a 693d db07 cbbd
000001b0: 1b18 773d 6987 013e d341 2fbe 6f01 45bd
000001c0: c9fc 9f3d bbc7 a63d 6a1a f33d d2a5 783d
000001d0: 39a9 f5bd 4473 f83b 0e9a f5bd 5a4f fb3c
000001e0: ee5e 813c e2ef 7abd cf04 873d 1ec2 0a3e
000001f0: dd56 053d b0f9 303c 5726 8bbd 547b d3bd
00000200: 0535 903c b9b6 033e 536e 533d d5f5 2a3e
00000210: 58bd 27be f182 123e 82d3 b4bd 2083 9abd
00000220: e6b7 103e 59bb 4bbe 523d c63c a1c4 82bd
00000230: 8581 d4ba 613a b03d ff0d c73c 4ee0 47bd
00000240: 8d09 84be 5a96 37bd 97e7 aabd 1d1a 3c3d
00000250: 40eb f7bb 17ca 073e c979 3fbe 543f 5bbd
00000260: 68e4 f0bd a4d4 cabd d462 75be 1699 15be
00000270: 9382 81bd 3b7e 073e 408c a33d 42fe af3d
00000280: 4fb0 6ebc 8394 0e3e 8bb8 1dbe 14f9 07bd
00000290: 3179 feb9 de5d 7fbc 492f 1abd fb17 aa3d
000002a0: 786a 76bd 2336 703e 8564 de3d b446 89bd
000002b0: f19d 223c 75a4 22be 97c0 a1bd f0eb c4bd
000002c0: b583 8cbd 686a 66bd a5f0 713d 6b02 80bd
000002d0: d8f8 d4bd 1607 03be 58c9 713d 4cee 92bd
000002e0: cbe4 38bc e7c1 6c3e 3c96 2a3d 1775 a73c
000002f0: d82d e4bd 3f4a 99bd 46be 5b3c 472e 4c3d
00000300: bb0b 183d 5cc2 0b3e 9ad5 69bd 0785 46be
00000310: f9e1 683d 7951 51bc cca4 babc 4b99 0b3e
00000320: 9cee 543d 653f 173e b811 86bc 4684 113e
00000330: b30b 813e 03d1 80be a645 ccbd 676d ef3c
00000340: 3cfe eebd e254 e73c d4ca 8fbd c762 b3bc
00000350: fffb b23c 32aa 2b3d c842 8f3d ba57 0cbe
00000360: fd25 3abd 981e dc3d becf 0dbe 82e5 0dbc
00000370: bc41 c43c 44f4 48be fdb5 32bd 4b73 3bbd
00000380: 3c31 113d df0b 0d3e 1eeb 90bd 0d62 573d
00000390: 324e 123d 32be ee3d 7390 71be 441b 503d
000003a0: cf10 6f3c dc83 03be 5c05 eb3d 4a17 ac3b
000003b0: d289 9e3d aeaa 1b3e f42d 77bd bbb1 02be
000003c0: 1183 efbd 7487 d03b 1435 babd 5053 293e
000003d0: 99ba 203e 62ec fcbc 6a54 1f3e 88fc 343d
000003e0: 9df4 093e 2bc0 3e3e 6025 323d 2550 133e
000003f0: 1eda e33d 2812 a73d 4d12 493e 6a71 1d3e
0.0142419925 -0.22339925 0.22580393 -0.06422216 -0.049405288 -0.055709008 -0.140364 -0.13073142
0.047861043 0.035527073 0.01450432 0.042542357 0.07815035 0.13613887 0.1309406 -0.13710244
-0.04052455 0.106514305 0.048942316 0.1731544 0.015566474 -0.1835815 -0.0016966531 0.21942002
-0.05866306 -0.049742784 0.031376254 0.041143343 -0.05794529 0.023624487 -0.012460961 0.1641311
-0.02110414 0.16105631 -0.11970673 0.12387375 -0.124548435 0.009985253 0.079916544 -0.115017794
-0.08887901 -0.010275867 0.121761486 -0.037756722 -0.14790541 -0.26000354 0.053701185 -0.073536456
0.09520067 -0.15915535 -0.06102476 0.07420678 -0.094664246 0.14306246 -0.046670835 0.1299687
-0.038565777 -0.16832267 -0.08211407 0.041447636 -0.09243935 0.0058869603 -0.20669319 0.09296181
-0.008028648 0.11312392 -0.08620334 0.010252977 -0.03542371 -0.046679802 -0.10650509 -0.10091931
0.10762165 -0.14837371 0.13500832 -0.21080537 0.035123307 -0.20316409 -0.09790054 -0.13857408
-0.022576487 -0.01540072 -0.04270488 -0.069638185 -0.028230326 0.16917472 0.10051647 -0.10814064
0.08013529 -0.094954826 0.12347092 -0.039384123 0.040595647 -0.075745635 0.026741479 0.17945649
0.1326625 0.1505306 -0.019975549 0.07872937 -0.080343455 -0.20234445 0.11964936 -0.021579951
-0.06798785 -0.29621542 0.057001457 -0.09913608 0.060325723 0.12649311 -0.17114954 -0.04809707
0.07811887 0.08143564 0.118702725 0.060705014 -0.11995167 0.0075821 -0.11992274 0.030677486
0.015792336 -0.061263926 0.06592714 0.13550612 0.032553542 0.010801718 -0.06794422 -0.10326257
0.017603407 0.12862672 0.051618885 0.1669534 -0.16380823 0.14307763 -0.088294044 -0.07544541
0.14132652 -0.19895686 0.024199162 -0.0638516 -0.0016212916 0.08604885 0.024298666 -0.048797898
-0.25788537 -0.04482112 -0.083449535 0.04592334 -0.007565886 0.13260685 -0.18698801 -0.05352719
-0.11762315 -0.09903839 -0.23963481 -0.14609179 -0.06323733 0.13231747 0.07985735 0.08593418
-0.014568402 0.1392384 -0.15402429 -0.033196524 -0.0004853695 -0.0155863445 -0.03764275 0.08305355
-0.06016013 0.23458152 0.10859016 -0.06702939 0.0099253515 -0.15883048 -0.07898062 -0.09615314
-0.068610586 -0.05625382 0.059067387 -0.06250461 -0.10399026 -0.12795672 0.059029907 -0.07174358
-0.011285017 0.23120843 0.04164718 0.020441575 -0.111415565 -0.074848644 0.013412064 0.04984882
0.037120562 0.13648361 -0.057088472 -0.19386683 0.05685613 -0.012775772 -0.02278366 0.13632695
0.051985368 0.14770277 -0.01636587 0.14210615 0.25204238 -0.25159463 -0.09974222 0.029226972
-0.11669585 0.028238717 -0.07021108 -0.021897687 0.021848677 0.041910358 0.069951594 -0.1370534
-0.045446385 0.10748023 -0.13848779 -0.008660676 0.023957126 -0.1962443 -0.04363059 -0.04576425
0.035447344 0.1377406 -0.07076095 0.052583743 0.035719104 0.116573706 -0.23590259 0.050807253
0.01459141 -0.12843269 0.114756316 0.0052517997 0.07741131 0.15201828 -0.06034656 -0.12763111
-0.11694921 0.0063638035 -0.09092155 0.16535687 0.15696181 -0.030874435 0.15559545 0.044186145
0.13472219 0.18627994 0.043492675 0.14386041 0.11125587 0.0815776 0.19635887 0.15375295

bias f4 [100]
00000000: 261e f9bc 1715 8a3c 9b59 863d df8c 1f3d
00000010: 4304 803d 5de2 48bd 2dc7 ffbc 976b 5b3d
00000020: c9f1 0ebd d9b4 603d 3b31 4abb 695b 1c3d
00000030: 657e 653c 78ff 293b 7700 0cbd de43 8c3d
00000040: b0a1 ebbd de8c 783b 568e 82bd 2dc3 0e3e
00000050: e18b 1c3d 6c68 5fbc 6794 b83d 0ce5 13bc
00000060: dc36 a0bc 8ac3 233d 0a88 633d 6894 e1bc
00000070: f115 6ebd 0913 b63d a966 20bc de13 69bc
00000080: 850a 1abc bc8b af3d 8c60 203c 5a13 8b3d
00000090: 14e6 983d d381 0e3d 5723 f63c c71f c6bd
000000a0: 2db2 403d 77f5 d53b 670f 403d 464b 083d
000000b0: 2e91 6d3d 325e c5bc 8c70 57bd e631 d0bd
000000c0: 65c0 973d 51a7 ba3d 7526 f93c 7f34 b63d
000000d0: 527d eb3d 9aae 27bd 8ea8 923b 1036 483d
000000e0: 63e3 aa3d b9f8 4fbb 8ead 2dbc ddd6 5abd
000000f0: 7525 653d 0147 be3d 8205 f63d 5cbb 22bd
00000100: 9345 3abb 5b29 86bd 3184 76bd 7300 12bd
00000110: 8399 8cbb f41a 1ebd 5a54 ad3d 289a db3d
00000120: 92c2 4b3d 4c92 423d bb7b a23d 36a8 3bbd
00000130: f58c e5bc 85fc 17bc c036 973d fb38 97bd
00000140: be76 23bd d520 91bd 3dc3 db3d 51cb b3bd
00000150: 3a11 053c c7de 993d 3b81 f03c f7de 013d
00000160: bd4c 803d 731c 963d 4054 ef3c 26d0 d53c
00000170: a713 313d be10 023d 0169 1dbd a0b6 2c3d
00000180: 75be 86bb 57af 17bd 243c c3bd f273 ec3c
-0.030409884 0.01685576 0.0656006 0.038952705 0.06250813 -0.049044 -0.031222904 0.053569403
-0.034898553 0.05485997 -0.0030852098 0.038173113 0.014007186 0.0025939625 -0.03418013 0.06848882
-0.11505449 0.003792576 -0.06374805 0.13941641 0.038219336 -0.013635736 0.090126805 -0.009026777
-0.019557409 0.039981402 0.05554966 -0.027536586 -0.058126394 0.088903494 -0.009790101 -0.014225928
-0.009401922 0.08571574 0.009788644 0.067908004 0.07465759 0.03479178 0.030046148 -0.0967403
0.04704492 0.006529506 0.04688969 0.03327491 0.057999782 -0.024092767 -0.052597567 -0.10165767
0.07409743 0.09113944 0.030413846 0.088967316 0.11498512 -0.040937997 0.0044756597 0.048879683
0.08344152 -0.0031733944 -0.010600461 -0.053427566 0.055943925 0.09290887 0.12012769 -0.03972946
-0.0028422817 -0.06550857 -0.06018466 -0.03564496 -0.004290761 -0.038599923 0.084633544 0.10722762
0.049746104 0.0475028 0.07933756 -0.045814715 -0.028021315 -0.009276514 0.073834896 -0.07383915
-0.039908163 -0.0708634 0.10730598 -0.08779014 0.008121783 0.075131945 0.029358497 0.031706776
0.06264637 0.07329645 0.029214978 0.02610023 0.043231633 0.031754248 -0.038430218 0.042166352
-0.0041120597 -0.03703245 -0.09532955 0.02886388

weight f4 [100, 100]
00000000: 4dcd a43d 04e5 463e 395e 24bd 8d00 af39
00000010: 81ab 633e ea47 4d3e 607c 483e bf90 a2bc
00000020: a92c 0d3c 0c56 c3bc 2ffb 853d 4453 0dbe
00000030: 9db4 e1bd 6fa4 533d 0440 113d afdf b5bd
00000040: 5f25 0ebe 81ac a43d 851f 95bd 8b24 d53c
00000050: 5e82 3ebe 76c3 f43d 57d3 90bd fb58 3fbe
00000060: 6713 2b3e 7664 463d 4ca8 863c 5aff a4bd
00000070: f7c2 edbc b049 ebbc 9133 acbc 0248 aa3d
00000080: 38f7 1f3d bb08 fabd 23ac 0fbd ff52 043e
00000090: d14c 4dbc fc39 cb3d 675f ef3c 2f7a edbc
000000a0: 3614 0fbe 907c 923e b907 353d 6377 873d
000000b0: 9573 82bc 5a25 ca3c 1d4c b9bd ad8b 69bd
000000c0: aa38 04be 7b36 253c 608c 41bd de4d 5b3e
000000d0: 6b69 9bbd 96a8 a8bc 72aa ca3d 668a 09bd
000000e0: 7fc0 ca3d 87c0 f13c c649 2ebd 67ea 0d3e
000000f0: d2ba b23d f9ef dd3d 3bc0 ab3d 034e 183e
00000100: da9a c0bd eabc 793e ca0a d33d 5b41 18bc
00000110: e08d d4bd fca0 1dbd 3aec c4bd 18b6 85bd
00000120: be07 1d3e d945 34be 7fcc e1bc 5251 1bbe
00000130: 37a4 e33d 5219 2f3e 05b4 4f3d 33d1 34be
00000140: 83c3 74bd bb47 42be a4fa 47bb 5bd2 0ebd
00000150: 2d4e 003e 2ef1 0f3e 7f09 48bc 3cac 443d
00000160: fb4c a9bc 66c9 e63d 467e 23bd 1604 36be
00000170: 10b2 4e3e 2e1a 0c3e 24ed 0ebe 0292 fa3d
00000180: 292b 33be 771e ab3d 869e 48bd 390a 303d
00000190: 7241 713d 44d9 823c 57e7 773c f725 10bd
000001a0: 925f bf3c 44a0 87bd 9032 edbd 1d60 e93d
000001b0: 3b8b 87bd ae4a 6bbe 3fab 04bd 5cd1 0bbd
000001c0: 61ce e1bd dfe0 a13d b0a4 22be 6103 8fbe
000001d0: cc10 493d 30a1 533e 3b67 a5bb 568d 8e3d
000001e0: 7b6b 59bc ac30 3b3d 25ee 553d ce9f c4bd
000001f0: dc61 553c 211e b3bb 29f9 573d 787c de3d
00000200: a332 693d 2e65 333e 21ba 6b3d eb5c 623d
00000210: 3a63 d23d e36f d43d 8b57 ad3d ec6f f33d
00000220: 7d66 16be 5796 cb3c ac99 81bd a55e c7bb
00000230: c569 3ebd a7cd 38be ec66 883d b469 e9bd
00000240: fed0 8dbd 833b 033e c97d 293e 57f3 943d
00000250: d651 f13d 74bb 51be a667 f83c 46a3 06be
00000260: f223 10be 47c8 e2bc 937c 623d de0b 1c3c
00000270: c601 1f3d 9146 8c3e b88e 62be 3aba a13b
00000280: 6ae2 1c3e dd65 403e f2ae 52bd 38ae 98bc
00000290: b8d2 a73d 6738 cf3c 3276 f0bc 1d92 153d
000002a0: cada a03c 30c9 fdbd a41f 033e 1576 95bd
000002b0: 5214 1239 367c 2d3e 640d 8d3d b62d 4cbc
000002c0: 651d 113e 1cbe 153d 4a58 b3ba ab58 10be
000002d0: e005 f83d 1288 0bbc e6c3 90bd ed51 693d
000002e0: 7f0c 1f3d 09cd 74bd 9809 d13c 36e3 023d
000002f0: a921 13be 9e53 173d 5f61 5c3e 2282 023e
00000300: 733c a33e d49f 7dbd 8f37 463e a82a eebc
00000310: 1f82 f6bd 738b bfbc da01 febd 415a 9dbc
00000320: 233f 7abd e239 2bbe fe8a 843c a677 edbd
00000330: d7f5 22be 5f18 90bc a135 6f3d adff bdbd
00000340: 5915 e3bc 3021 cfbd 28ed dd3c c861 17be
00000350: 2238 943d 21c9 edbc e9c0 843b 22a0 16be
00000360: 498f a53c d0ad c0bd 4403 c33d 15ff 5c3c
00000370: e20e 2e3d fe4a 96bd 36d6 db3b e31c 753d
00000380: 16b3 3b3c 2a5f ba3a 150d 0c3e d19e 09be
00000390: fd9e 083e 76fa d53d 2e99 993b 9034 96be
000003a0: 291a 2ebe 9431 e8bd 0f34 b53c b21f 263d
000003b0: c890 1e3d 93ce 1d3e 9cfc f03d 4c3d 00be
000003c0: d8c3 95bb 2574 debd e8e6 793d adda d03d
000003d0: f49c de3d 658b 673d 517c 4e3d 21cd 4a3e
000003e0: 71a0 fabd 9395 23bd e4ba d33d a2ec 373d
000003f0: 4dbf 773c f574 89bc dda9 3cbd 679a 933d
0.080469705 0.194233 -0.04012892 0.0003337901 0.22233392 0.20046964 0.19578695 -0.019844411
0.008616605 -0.023844741 0.0654205 -0.13801295 -0.110207774 0.051670488 0.03546144 -0.08880555
-0.13881443 0.08040715 -0.072814025 0.026018402 -0.18604419 0.11951344 -0.0707156 -0.18686287
0.1670662 0.04843565 0.016437672 -0.08056517 -0.02902363 -0.02872166 -0.021020683 0.08314516
0.039054126 -0.122086965 -0.03507627 0.12922285 -0.0125305215 0.09923169 0.029220296 -0.028988926
-0.13972554 0.2861066 0.044196818 0.06614568 -0.015924254 0.024676014 -0.090477206 -0.05701797
-0.1291224 0.01008379 -0.047253013 0.21416423 -0.07588466 -0.0205882 0.09895791 -0.033579253
0.09899997 0.02951075 -0.042550825 0.13858949 0.087270394 0.10836787 0.083862744 0.14873509
-0.094045356 0.24388471 0.10304792 -0.009292926 -0.10378623 -0.038483605 -0.09615369 -0.06528872
0.15334985 -0.1760477 -0.027563332 -0.1516774 0.11115306 0.17099503 0.05070879 -0.17657928
-0.059756767 -0.18972676 -0.0030514384 -0.03486858 0.12529822 0.14056846 -0.012209295 0.048015818
-0.02066659 0.112688825 -0.039915346 -0.17774996 0.20185113 0.13681862 -0.1395765 0.1223488
-0.17496933 0.0835542 -0.048979305 0.0429785 0.058900304 0.015972741 0.015130839 -0.035192456
0.023361001 -0.06622365 -0.1158191 0.11395285 -0.06618353 -0.22977707 -0.032389876 -0.034135208
-0.11025692 0.07904219 -0.15883136 -0.27932265 0.049088284 0.20666957 -0.0050477064 0.069605514
-0.013270254 0.045700714 0.052229065 -0.09600793 0.01302382 -0.005466238 0.052727852 0.10863584
0.056933057 0.17519066 0.057550553 0.055264395 0.10272832 0.10372903 0.08463963 0.11886582
-0.14687534 0.024851961 -0.06328139 -0.0060842806 -0.04648759 -0.180472 0.06660256 -0.113971144
-0.06924628 0.1281567 0.1655189 0.07272976 0.11783187 -0.20481664 0.03032286 -0.13148221
-0.14076212 -0.02768339 0.055294584 0.009524314 0.03882005 0.27397588 -0.22124755 0.00493553
0.15320745 0.18788858 -0.051436372 -0.018637761 0.08194488 0.02529545 -0.029353235 0.036516298
0.019635577 -0.12391889 0.12805039 -0.07297913 0.00013931215 0.16941914 0.0688732 -0.01246207
0.1417137 0.036558256 -0.0013682928 -0.14096324 0.121104956 -0.008516328 -0.07068615 0.056962896
0.038830277 -0.05976585 0.02551727 0.031954966 -0.14368309 0.036944978 0.21521519 0.12744954
0.31882057 -0.061920002 0.19357131 -0.029073074 -0.120365374 -0.023381924 -0.12402697 -0.019208075
-0.061095368 -0.167213 0.016179558 -0.11595087 -0.15914093 -0.017589746 0.058400754 -0.09277282
-0.02772014 -0.10113752 0.027090624 -0.14783394 0.07237269 -0.02902657 0.004051317 -0.14709523
0.020209925 -0.09408152 0.09522107 0.013488551 0.042494662 -0.073385224 0.0067088855 0.059842
0.011456272 0.0014219035 0.13676865 -0.1343949 0.13341899 0.10448162 0.00468745 -0.29336977
-0.17002167 -0.11337581 0.02211955 0.04055757 0.038712293 0.15410833 0.117669314 -0.12523383
-0.0045704655 -0.108619966 0.061011225 0.10197959 0.1086978 0.05652942 0.050411526 0.19804813
-0.12237633 -0.039937567 0.10338381 0.044903405 0.015121293 -0.016779402 -0.04606043 0.07207184

bias f4 [100]
00000000: 7344 343d 2333 70bd 060a e93d c6a6 fbbc
00000010: 8960 c6bb 13f5 9d3c 5f73 e43d 6bfe 1cbd
00000020: 9d48 2c3c 971e 8e3c ceaa 883d 3b9b 5ebc
00000030: 568f 03bd b4ed 64bd df27 0ebd 3c46 cd3d
00000040: a338 0dbd 0478 473d 9ebd 79bc e9a3 953d
00000050: de39 3e3d 0277 cdbc 721f 0d3e 42a2 b9bd
00000060: 4409 5d3d 1d71 53bd e564 6bbb 3a04 113d
00000070: 125a 3b3d 56bf de3d b709 83bd ec2d 5cbc
00000080: 410f 9cbd ab77 25bd a71c 483e 0f95 84bd
00000090: 747f 85bd 5d01 acba e729 cabd f238 b03d
000000a0: 613a 99bd cd04 803d 9eca a7bd cc7c 44bd
000000b0: 14b3 6ebb 3ed6 ac3d f044 4b3d 97f3 93bd
000000c0: c47e f33c 53e6 523d 0bb5 03be a607 3c3d
000000d0: ca82 013d 200e bdbd 2c84 a63d 392a 883d
000000e0: 3c1c a33d 56d1 953d ceca 4f3b 5277 753b
000000f0: 853d 22bd 50a0 ebbc 79ee 3f3d 7829 14bd
00000100: 154a de3d ec47 0d3d 3c1a 733d 8f7e d73d
00000110: e1b6 d3bd 0526 9abb 1aa8 46bc 759e 793c
00000120: 08b1 0d3e fb6e 1f3c dc83 2f3d 6fad 603d
00000130: 9193 083d 1ead 163d 2f75 b5bc 30e3 733c
00000140: 180e 91bc 5cd9 8bbd 78db 9eba 79fc 1c3d
00000150: b08e 193e 8f77 943d 8946 d8bc 8c23 acbd
00000160: a62c ecbd f91e e2bb 2eff 9abd 7698 2dbd
00000170: 48da 58bc 5c4e c83d 25d4 d23d ee50 173d
00000180: 0221 113c 91cb 903d c914 b0bd fd51 e6bb
0.04401059 -0.058642518 0.11378865 -0.030719172 -0.0060539884 0.0192819 0.11154818 -0.03832857
0.010515359 0.01734857 0.066732034 -0.0135868145 -0.032119118 -0.055890754 -0.034705993 0.10023162
-0.03447784 0.04869844 -0.015242962 0.07306654 0.046441905 -0.025081161 0.13781527 -0.09064151
0.053963915 -0.051621545 -0.0035918292 0.03540442 0.045740195 0.10876338 -0.06398337 -0.013438683
-0.07620097 -0.040397327 0.1954218 -0.06473743 -0.065184504 -0.0013122965 -0.098712735 0.086046115
-0.07481838 0.06250916 -0.08192943 -0.047970578 -0.0036422657 0.08439301 0.04962629 -0.072241955
0.029723532 0.051489186 -0.12862031 0.04590573 0.03161887 -0.0923121 0.081306785 0.06648678
0.0796437 0.07315318 0.0031706574 0.0037455154 -0.03960945 -0.028762966 0.046858285 -0.03617236
0.10853974 0.03449242 0.05935119 0.10522186 -0.10337616 -0.0047042393 -0.0121250395 0.015235533
0.13837063 0.00973105 0.04285036 0.0548529 0.033343855 0.03678619 -0.022150604 0.014885709
-0.017706916 -0.068285674 -0.001211985 0.038326714 0.14995837 0.072493665 -0.026400821 -0.084052175
-0.115319535 -0.006900665 -0.07568203 -0.042381726 -0.013235636 0.09780571 0.102943696 0.036942415
0.008857967 0.07070077 -0.085977145 -0.0070288167

weight f4 [100, 100]
00000000: 608c 78bd 118b 0d3b 98e1 f9bd 951e f93d
00000010: 0b3f c7bd aa9f 9f3c 86b7 7c3d 45d2 fc3c
00000020: abea 943d 1d56 443e 191b 5cbe 20e9 0cbe
00000030: bb09 283e 491d 9cbd a3d4 1cbd 9a54 f8bd
00000040: c2ea abbb 9636 86bd c838 2f3e 18d7 573e
00000050: bb62 9bbd 474e 80bd 01de 9e3d e12e e53d
00000060: 5822 003e ad68 8ebd bb38 033d 903d 3839
00000070: ff08 713b 27b1 753c 6882 103e ec55 693e
00000080: 5dda c53d 37cc 193d 50bd a1bd 2eab 823c
00000090: 317d fcbd 6d45 d23d 3094 0f3d e6f7 e4bc
000000a0: 54e6 febb 7cf5 9d3e 6af0 c33b d8c3 0e3e
000000b0: b866 00be 9541 89bd 5fa5 3d3d ac97 d1bd
000000c0: 80a8 2fbd d667 63bd f188 dbbd 5680 b73d
000000d0: 9137 40bd 6f37 60be 4e01 6c3d 6095 003e
000000e0: e0c4 b93b 6f04 f6bd 8f59 62bd dc3a d3bb
000000f0: 72e3 423d 90a2 78bd d32d 05bd 2fc1 033d
00000100: 35b8 7ebd ecef 18be d639 543d 3a9a 163e
00000110: 8ad1 ec3c d94c 6fbd ddb2 cfbc 7986 babb
00000120: f1c8 463d 3548 8abc 80ea e13d f1e2 47bd
00000130: b436 f23d c109 bd3d 17ac 37bd 2ad5 7a3d
00000140: 1379 d83c b520 b0bd 1e8f f2bc 3a1e fa3d
00000150: 6c65 95bd c700 86bd e1b9 2d3d b29a 583e
00000160: d7ef 1dba a1ad 4f3e df10 11be 03b6 1c3e
00000170: 1192 333e 573d 373d 4bb5 c6bd dfbb 943d
00000180: 8f75 f8bc d453 fe3d 6589 5fbd dda2 adbb
00000190: 29d5 743c bc75 063d 7fcd efbc d60a b3ba
000001a0: cf5a 0dbe e6e8 aebd 48b1 79bd 270b 583e
000001b0: daa8 30bc 5ab7 cc3d af8e 9f3b 9320 3d3d
000001c0: 4ba1 21be 72fd 2fbc ea95 7cbc f1eb 45be
000001d0: fd87 17bc c8ba 403e cc2c 54bd 4aec 9cbd
000001e0: de99 003c 70b5 47bd 64f9 153d 40ef 193e
000001f0: f44b 353e a4ea 1cbe 6e46 cf3d ff57 663c
00000200: 1373 2e3d 9177 c6bd 8b01 38be 262e 2fbe
00000210: a9ba c1bd d75c b4bd adc2 793d 61e8 0c3d
00000220: c1fc 583d a98b d33d 4c1d 833c c70d b73d
00000230: 1ee8 da3d c66e 243d d123 0dbd 3b01 253e
00000240: e0f0 32bd 054c 583d 7867 893d 53e8 27be
00000250: b6a4 263e 808e cebc 06c6 0e3d 9e17 ca3c
00000260: 8f11 913d 347f 3ebd ed9e d33c bdce d9bd
00000270: 9c6c 27bd a8aa a93c 5a27 15bd 547f 21bb
00000280: 3d0e 87bd 01e2 883d 8307 fabc d676 dd3c
00000290: e02f 003e d82d 963e 01fe 603d c293 653b
000002a0: 769c 133e 4903 003d 81fe 45be 4da8 1bbc
000002b0: 1af4 b9bd 64fe 053e c405 013e c366 8b3d
000002c0: 227c b13d 8baa a4bd 7891 f2bd 4537 823c
000002d0: fa93 b73d a2e3 9e3d 8dc5 f83c f5a5 443c
000002e0: 7316 403d abe4 57bd b37f 9a3e 68dd 633a
000002f0: 5dcd e13c eb96 6b3d 315f b73b d928 2a3e
00000300: 7045 c33c 468b f23c 9904 2fbe 3d9d febd
00000310: 799c 61bd 4d1b fcbd df63 ab3d 3770 17be
00000320: 1627 85bd 3aa5 023c e2bb c0bd 92d0 15bc
00000330: 5725 3abd 08fa 43bc c4ee e03d 4f14 abbd
00000340: 5251 f0bd d7a2 583d 3c05 03be 3dd2 283d
00000350: b28d 703e 3d0e 0bbe 2c7c 1f3d 8caf cdbd
00000360: 2728 a7b8 7fd9 a3bc bdd6 49bc 2181 1ebe
00000370: f9b6 863d ea71 d03c 4eb4 08bb 2a1a 253c
00000380: 9290 f7bc e591 04bd 80b9 823d 378e a3be
00000390: a28d bf3d de7d 01be ecd2 cfbd 494a bb3d
000003a0: aed6 f83d 98af 963d 3488 0bbd 7bff dbbd
000003b0: 1f2c 903e 53ac b13d 84dc 9ebc acff 6abe
000003c0: 7c26 b8bc 050d cf3d 2ec4 6fbc 1edf 653e
000003d0: 96c2 5abe de3e 40be 0925 0abe d160 263b
000003e0: de88 c33d 44f2 12be 5f47 49bd 6223 5abe
000003f0: b26c 5fbd 5e6b 0ebe d922 ecba d611 033e
-0.060680747 0.0021597783 -0.12201232 0.12164036 -0.09728821 0.019485313 0.06169846 0.030861983
0.07271322 0.19173475 -0.21494712 -0.13760805 0.16409962 -0.07622773 -0.038288724 -0.121255115
-0.005246491 -0.0655338 0.17111504 0.21078146 -0.07587191 -0.0626493 0.07757188 0.11190582
0.12513101 -0.06953559 0.032036524 0.00017570541 0.0036779044 0.01499585 0.14112246 0.22786683
0.0966079 0.03754827 -0.078974366 0.015950765 -0.12328566 0.10267148 0.035053432 -0.027950238
-0.007778922 0.30851352 0.0059795873 0.13941896 -0.12539184 -0.06701962 0.04630029 -0.10234007
-0.042885303 -0.055518948 -0.10719479 0.08960025 -0.046927992 -0.21896146 0.05761843 0.12556982
0.0056692213 -0.120125644 -0.05526119 -0.0064462256 0.04758019 -0.060701907 -0.032514405 0.032166656
-0.062187392 -0.14935273 0.05181297 0.1470727 0.02890851 -0.058422897 -0.025353843 -0.0056923
0.048531476 -0.016880134 0.110310555 -0.048800413 0.1182684 0.09230376 -0.044841852 0.061238445
0.02642492 -0.08599988 -0.02960926 0.122127965 -0.07294735 -0.06543117 0.042413596 0.21152762
-0.00060248136 0.20281078 -0.14166592 0.15303807 0.17536189 0.044736233 -0.09702548 0.07262396
-0.030329494 0.12418333 -0.05457439 -0.005298956 0.0149433995 0.032827124 -0.029272793 -0.0013659846
-0.13804172 -0.085405156 -0.060960084 0.21098004 -0.010782445 0.09995909 0.004869304 0.046173643
-0.15784185 -0.010741578 -0.015416602 -0.19328286 -0.009248731 0.18821251 -0.051800534 -0.07662256
0.007849185 -0.048757017 0.03661479 0.15032673 0.17704755 -0.15323883 0.10120855 0.014059066
0.042590212 -0.09690774 -0.17969339 -0.17107448 -0.09459431 -0.0880677 0.060976673 0.0344013
0.05297542 0.103293724 0.01600518 0.08938175 0.10688804 0.040144704 -0.034457985 0.1611375
-0.043686748 0.052806873 0.06709188 -0.16397218 0.1627377 -0.025214434 0.03485682 0.024669465
0.07083427 -0.04650803 0.025832618 -0.10635135 -0.040875062 0.020711258 -0.03641448 -0.0024642544
-0.065945126 0.06683732 -0.03052116 0.027034204 0.12518263 0.2933185 0.054929737 0.0035030697
0.14415154 0.031253133 -0.19335367 -0.009500575 -0.09079762 0.13085324 0.12599856 0.068067096
0.086662546 -0.08040341 -0.11844152 0.015895495 0.08963771 0.07758261 0.030367637 0.012002458
0.04689641 -0.05270831 0.30175552 0.0008692355 0.027563745 0.057516973 0.0055960645 0.16617145
0.023836821 0.029607426 -0.17091598 -0.124323346 -0.055080865 -0.12309895 0.08368658 -0.147889
-0.06501596 0.007973963 -0.09410836 -0.009143965 -0.045445766 -0.011961468 0.10983041 -0.08353483
-0.117342606 0.05288967 -0.12794966 0.041216124 0.23491552 -0.1357965 0.03893678 -0.100432485
-7.9706595e-05 -0.020001171 -0.012319264 -0.15478946 0.06577868 0.025444943 -0.0020859423 0.010077039
-0.030220304 -0.0323657 0.063830376 -0.3194444 0.09353186 -0.12645671 -0.10147652 0.09145028
0.12150322 0.073577106 -0.03406544 -0.107420884 0.28158662 0.08675446 -0.01939226 -0.22949094
-0.022479288 0.10109905 -0.014634175 0.22448394 -0.21363291 -0.18773982 -0.1349069 0.0025387297
0.0954759 -0.1435023 -0.04914033 -0.2130256 -0.05454702 -0.13908145 -0.0018015757 0.12799773
